Model/cnn_model.pkl (torch, 38940 bytes, 6 tensors)

conv1.weight f4 [8, 1, 3, 3]
0	0x3c3a4900	0.011369944
1	0xbd9ff76c	-0.07810864
2	0x3dbf943c	0.09354445
3	0xbe9237eb	-0.28558287
4	0xbe5d339e	-0.21601722
5	0xbdd29fd6	-0.102843925
6	0xbe8e022b	-0.2773603
7	0xbe70e1fb	-0.23523705
8	0xbe8bb320	-0.272851
9	0x3eddb808	0.43304467
10	0x3f0846c9	0.5323301
11	0xbdf96238	-0.12176937
12	0xbf16ae08	-0.588593
13	0xbf405971	-0.75136477
14	0xbf46e291	-0.7768946
15	0xbed2df72	-0.411861
16	0xbe97f6bb	-0.29680428
17	0x3f063528	0.5242486
18	0xbf10da39	-0.5658298
19	0xbf07bbcd	-0.53020936
20	0x3e89ed60	0.26938915
21	0xbb25d5c2	-0.0025304412
22	0x3da6ad54	0.081385285
23	0x3eb43dfe	0.35203546
24	0x3f3955d4	0.7239659
25	0x3ed2ff57	0.41210434
26	0x3f4b6bbe	0.79461277
27	0x3f4699a9	0.77578217
28	0x3f1c05c7	0.60946316
29	0x3e09a786	0.13442811
30	0x3f788828	0.9708276
31	0x3f0dce83	0.55393237
32	0x3ea6e900	0.3259964
33	0xbd85d5c0	-0.0653491
34	0x3b346a2a	0.00275291
35	0x3e40b30b	0.188183
36	0xbebfc4c2	-0.37454802
37	0xbf1f547b	-0.6223828
38	0xbe9f9708	-0.31169915
39	0x3adeb5b0	0.0016991403
40	0x3d7636b0	0.060110748
41	0x3cd001ca	0.025391478
42	0x3f116556	0.5679525
43	0x3f0ad419	0.54229885
44	0x3ec56251	0.38551572
45	0x3f1cef4f	0.61302656
46	0x3ee1818e	0.44044155
47	0xbf0a89fe	-0.5411681
48	0x3e21b4f6	0.15791687
49	0x3e57da90	0.21079469
50	0xbed2ecad	-0.41196194
51	0x3e7f7809	0.24948134
52	0x3f0d421c	0.55179
53	0x3f0f32e0	0.55937004
54	0xbe14170f	-0.14461921
55	0x3ecdefc6	0.40221995
56	0x3e470375	0.19434913
57	0x3f15bd05	0.58491546
58	0x3f367a26	0.71280134
59	0x3e5b5290	0.21418214
60	0x3f190992	0.5978023
61	0x3ef85af9	0.48506907
62	0x3de91de6	0.11382656
63	0x3f1aaf7f	0.60424036
64	0x3e3f16c1	0.18661024
65	0xbd74ca6c	-0.059763357
66	0x3d4deb94	0.050273493
67	0x3f3ab720	0.72935677
68	0x3f583aaa	0.84464514
69	0x3ec6ce0c	0.38829076
70	0x3d616511	0.055028025
71	0x3e557653	0.20845918

conv1.bias f4 [8]
0	0xbe4ea668	-0.20180666
1	0x3e857c26	0.2607128
2	0x3df8e0bc	0.1215224
3	0x3bcff090	0.006345816
4	0x3c6a0cfc	0.014285322
5	0xbd72ec71	-0.05930752
6	0xbb22d3e8	-0.0024845544
7	0xbb02f942	-0.0019984995

conv2.weight f4 [16, 8, 3, 3]
0	0xbdc5ef60	-0.09664798
1	0x3d470056	0.048584305
2	0xbc434f78	-0.011920802
3	0xbd7cbc51	-0.06170303
4	0x3dbdb29b	0.09262582
5	0xbcb5fd68	-0.02221556
6	0xbd9948a2	-0.07484557
7	0xbd302516	-0.043004118
8	0xbc3269c0	-0.010889471
9	0x3cd4ef8b	0.02599313
10	0x3d3049d0	0.043039143
11	0x3d13834b	0.036013883
12	0x3d4d1c28	0.05007568
13	0x3dd352f2	0.10318555
14	0xbdf8bb16	-0.12145059
15	0x3e996b2f	0.29964587
16	0xbdbede78	-0.09319776
17	0xbe1a1ab6	-0.15049252
18	0x3e199eaf	0.15001939
19	0x3d3ddc13	0.046352457
20	0xbd6b420e	-0.05743604
21	0x3e231113	0.15924482
22	0xbe4f9918	-0.20273244
23	0xbe2d0ff5	-0.16900618
24	0x3c362be8	0.0111188665
25	0x3d9491c0	0.07254362
26	0x3c82b719	0.015956448
27	0xbe5e6722	-0.2171903
28	0xbe1e542d	-0.15461798
29	0x3db9af14	0.090665966
30	0x3dac5509	0.08414657
31	0xbc8be60e	-0.017077472
32	0x3d443492	0.047901697
33	0x3c5f271a	0.013620162
34	0xbda5e38b	-0.08100041
35	0x3d94e8e2	0.07270981
36	0x3e0beca0	0.13664484
37	0xbcd4af24	-0.02596242
38	0xbb5bf336	-0.0033561713
39	0x3c881930	0.016613573
40	0xbe5a035a	-0.21290341
41	0x3c3fa93b	0.0116980625
42	0xbd8e46e6	-0.069471166
43	0xbd0c3959	-0.03423438
44	0x3c400684	0.011720303
45	0x3d8ba479	0.0681848
46	0x3d9aad3e	0.075525746
47	0x3de9ce18	0.114162624
48	0xbdf469b6	-0.11934225
49	0x3dadf8eb	0.08494743
50	0x3e283162	0.16425088
51	0xbdd9c165	-0.1063259
52	0x3e0f5786	0.13998231
53	0x3e40922c	0.1880576
54	0xbd921841	-0.07133532
55	0x3e158359	0.14600886
56	0xbd9b0f77	-0.07571309
57	0x3e09d39d	0.1345963
58	0xbc83ea15	-0.01610283
59	0x3d0ae245	0.033907194
60	0xbd6ac1c0	-0.05731368
61	0xbd90f3b8	-0.07077736
62	0x3e3381f4	0.17530042
63	0xbda5cef3	-0.08096113
64	0x3c98a968	0.018635467
65	0xbbf3cdde	-0.0074403128
66	0x3c47c518	0.012192987
67	0xbcde3f35	-0.027129749
68	0xbd6f3fdf	-0.05841052
69	0xbb0eb994	-0.0021778094
70	0x3dc1d091	0.09463609
71	0x3e6ed495	0.23323281
72	0x3ba17f80	0.0049285293
73	0x3de2c2f7	0.11072343
74	0xbd56f1c8	-0.052476674
75	0xbcefa9bc	-0.02925574
76	0xbd4de0aa	-0.050263084
77	0x3db7e7c9	0.089797564
78	0xbc2edcb0	-0.010672733
79	0xbd98d512	-0.07462515
80	0x3d36d802	0.044639595
81	0xbbf30df0	-0.007417433
82	0xbe9a5697	-0.30144188
83	0xbe546ccd	-0.20744629
84	0xbe01cf03	-0.12676625
85	0xbd66f3e0	-0.05638492
86	0xbe87ae39	-0.2650011
87	0xbb0e7310	-0.0021736063
88	0xbd9f3127	-0.07773047
89	0xbed34379	-0.41262415
90	0x3e34e317	0.17664753
91	0xbdc35031	-0.0953678
92	0xbdbebdd2	-0.09313549
93	0x3e94b1f0	0.29042006
94	0x3dc6967d	0.09696672
95	0xbe13b0e0	-0.14422941
96	0x3e04c339	0.12965097
97	0xbdfd2afb	-0.123617135
98	0x3e1e6ed3	0.15471964
99	0xbe10166c	-0.14071053
100	0xbaaa071a	-0.0012972087
101	0xbc1c76c0	-0.009549797
102	0xbe7fb8f6	-0.24972901
103	0xbd40c9fc	-0.047067627
104	0xbccad3e9	-0.02475925
105	0xbca7e5f6	-0.020495396
106	0x3d341f73	0.043975305
107	0x3de7af0f	0.11312687
108	0xbe136086	-0.1439229
109	0xbe209ad5	-0.15684064
110	0xbe8e95c5	-0.2784864
111	0x3d89acf8	0.06722444
112	0xbe5d27f3	-0.2159727
113	0xbd71c439	-0.059025023
114	0x3e183d8c	0.14867228
115	0xbd20df48	-0.039275438
116	0xbe11fe7c	-0.14257234
117	0xbdb461ea	-0.08807738
118	0x3e9e86aa	0.30962116
119	0x3e69eb0c	0.2284357
120	0xbe110413	-0.1416171
121	0x3dc66f74	0.09689227
122	0x3e01c7d6	0.12673888
123	0xbd987a44	-0.07445195
124	0x3e67869c	0.22609943
125	0x3e36a498	0.17836225
126	0xbe3c4a42	-0.18387702
127	0x3e7bf0ce	0.24603578
128	0x3dfb23de	0.122627005
129	0xbbc30526	-0.0059515415
130	0x3e834ebf	0.25646016
131	0x3cb9cff6	0.022682171
132	0x3e281917	0.16415821
133	0x3ddf09ca	0.10890539
134	0x3d5d544b	0.054035466
135	0x3bd34f1e	0.0064486405
136	0x3c68da3c	0.014212187
137	0x3e10f829	0.14157166
138	0x3d551906	0.052025817
139	0x3d9fefe8	0.0780943
140	0x3bcab74f	0.006186403
141	0x3d8c1c15	0.06841294
142	0xbb9d277b	-0.004795966
143	0x3de0812e	0.10962139
144	0x3d901d41	0.0703683
145	0xbdda9388	-0.106726706
146	0xbd88fc9c	-0.066888064
147	0xbd612ec4	-0.05497624
148	0x3a7b7080	0.0009591654
149	0x3df0c903	0.1175709
150	0x3d9842f5	0.07434646
151	0xbd9bc3d0	-0.07605708
152	0xbd21d9ce	-0.039514355
153	0x3d849060	0.0647285
154	0x3e546d78	0.20744884
155	0x3cd35efe	0.025802132
156	0x3de3cbde	0.11122869
157	0x3d94af91	0.07260049
158	0xbe0d6af9	-0.13810338
159	0x3e8aac71	0.27084687
160	0xbda3e7c0	-0.08003187
161	0xbe20fe76	-0.15722069
162	0xbe5d74a9	-0.21626534
163	0x3e83e86f	0.2576327
164	0x3eaefba3	0.3417636
165	0xbdf8e055	-0.12152163
166	0x3e64b83e	0.22335908
167	0x3db4a2ba	0.088201
168	0xbd273ed2	-0.040831394
169	0x3eadc8c2	0.3394223
170	0xbe00a5ad	-0.125632
171	0xbe8899c1	-0.26679805
172	0xbeae0c83	-0.3399392
173	0x3e31253d	0.17299362
174	0xbeb3785d	-0.35052767
175	0xbdbc3b5d	-0.0919101
176	0x3e900f90	0.28136873
177	0xbe91fe99	-0.28514555
178	0xbd5bb84a	-0.05364255
179	0x3e92cc8a	0.28671676
180	0xbe9a0758	-0.30083728
181	0xbd295fda	-0.041351177
182	0x3e3e8622	0.18605855
183	0xbe2f6e47	-0.17131911
184	0xbba61417	-0.005068313
185	0xbe3fdd89	-0.18736853
186	0xbe512af2	-0.20426539
187	0x3d4b614c	0.049653336
188	0xbea77ff9	-0.32714823
189	0xbe4bcfab	-0.19903438
190	0xbe5aff3f	-0.21386431
191	0x3e2e782d	0.17038031
192	0xbe711a16	-0.23545107
193	0x3bfc57ad	0.0077008815
194	0x3e1514ba	0.14558688
195	0xbe0875bf	-0.13326167
196	0x3e70a37d	0.23499866
197	0x3e77bcf1	0.24193169
198	0xbe574ab8	-0.21024597
199	0xbe9d9378	-0.30776572
200	0x3ebefec9	0.3730376
201	0xbebcdf0a	-0.36888915
202	0xbc7a908b	-0.015293251
203	0x3ea638bd	0.32465163
204	0xbe5bb991	-0.21457507
205	0x3eaaa5b4	0.33329546
206	0x3e7e9987	0.24863254
207	0xbe01d49e	-0.12678763
208	0xbe78ddcc	-0.24303359
209	0x3e970dcc	0.29502714
210	0xbeae8f0b	-0.34093508
211	0x3a410f6b	0.0007364663
212	0x3e629c49	0.2212993
213	0xbe863cae	-0.2621817
214	0x3e18613d	0.14880843
215	0x3e2d1702	0.16903308
216	0xbb4c4040	-0.0031166226
217	0x3dd0355b	0.10166427
218	0xbcf611bc	-0.030037753
219	0xbdeb5262	-0.11490323
220	0x3d21cd7a	0.0395026
221	0xbd82984a	-0.06376703
222	0xbd0cecc4	-0.034405485
223	0xbd255c3e	-0.040371172
224	0x3d9461b5	0.07245199
225	0x3d607557	0.054799404
226	0xbdd51f16	-0.1040632
227	0xbe2f9a8b	-0.17148797
228	0x3dedb267	0.11606293
229	0xbc861d16	-0.016371291
230	0xbe34b3d8	-0.1764673
231	0x3e5ea912	0.21744183
232	0x3de25457	0.11051243
233	0xbe860463	-0.26175222
234	0xbcb6a830	-0.022296995
235	0x3ddf2aed	0.10896859
236	0xbe3657b4	-0.17806894
237	0x3e68c971	0.22733094
238	0xbde06a6e	-0.109578
239	0xbea2d006	-0.31799334
240	0x3dea1e38	0.11431545
241	0xbe397820	-0.1811223
242	0xbe8d0923	-0.27546033
243	0xbd6cb35e	-0.057788245
244	0xbd9bb841	-0.07603503
245	0x3dc3c23b	0.09558531
246	0xbe16025b	-0.14649336
247	0x3d811439	0.06302685
248	0x3dbc1103	0.09182932
249	0x3e733466	0.23750457
250	0xbc392245	-0.011299674
251	0x3d4953aa	0.049152054
252	0xbe00f6a0	-0.1259408
253	0xbdd22b0e	-0.10262118
254	0xbe402114	-0.18762618
255	0x3e767746	0.24068937

conv2.bias f4 [16]
0	0xbd70e599	-0.05881271
1	0xbd6db4c6	-0.058033727
2	0x3e2dd70b	0.16976564
3	0x3caa7eb9	0.02081238
4	0xbdf075ad	-0.11741195
5	0xbd78b2f9	-0.060717557
6	0x3ddac188	0.106814444
7	0xbdcb35d9	-0.0992238
8	0x3dad7812	0.08470167
9	0x3da69286	0.08133416
10	0xbe243308	-0.16035092
11	0xbb8e7e90	-0.0043485835
12	0xbdd8968d	-0.1057559
13	0xbe165893	-0.14682226
14	0xbe1c255c	-0.15248626
15	0x3d11fd01	0.035641674

fc1.weight f4 [10, 784]
0	0xbd4cae35	-0.049970824
1	0xbd820a1d	-0.06349585
2	0x3d534fd1	0.05158979
3	0xbd7bec68	-0.06150475
4	0xbdef2d01	-0.11678506
5	0xbd42b215	-0.047533114
6	0xbdc87c69	-0.09789354
7	0xbcd2656f	-0.025683133
8	0x3bbce209	0.00576425
9	0xbd891a8e	-0.06694518
10	0x3d1348d7	0.035958137
11	0x3cdd6dcd	0.027029896
12	0xbd80020f	-0.06250393
13	0xbd3f47b0	-0.046699226
14	0x3ceeb936	0.02914105
15	0xbd23b27c	-0.039965138
16	0x3c5b004e	0.013366772
17	0x3cd23a33	0.025662517
18	0x3d555104	0.052079216
19	0x3bd058d2	0.0063582445
20	0xbc8b75ed	-0.017024005
21	0xbbf005db	-0.007324917
22	0x3d28dae2	0.041224368
23	0x3d788a04	0.060678497
24	0xbe0bfd44	-0.13670832
25	0xbdd2c763	-0.10291936
26	0x3d33f7a0	0.043937325
27	0x3d4ab449	0.04948834
28	0xbdabfbf4	-0.083976656
29	0x3d79dd47	0.061002042
30	0x3d669c88	0.056301624
31	0xbdb4ff30	-0.08837736
32	0x3d40ae3b	0.04704116
33	0x3cb640ac	0.022247635
34	0x3cb2e6f8	0.02183865
35	0x3c1630ff	0.009166955
36	0x3d37af5e	0.044844978
37	0x3dc3368a	0.09531887
38	0x3cc9cced	0.024633849
39	0x3c586016	0.013206502
40	0x3b97c2df	0.0046313847
41	0xbd04d632	-0.032430835
42	0xbc146f48	-0.009059735
43	0x3c212448	0.00983531
44	0xbe108930	-0.14114833
45	0xbe0196aa	-0.1265513
46	0xbd984ac0	-0.074361324
47	0xbe1ca4ef	-0.15297292
48	0xbdbc94cd	-0.09208069
49	0xbe22d4c6	-0.15901479
50	0xbd319aa5	-0.04336037
51	0xbcff1800	-0.031139374
52	0x3bdead07	0.006795529
53	0xbbc2641f	-0.0059323455
54	0x3cd62513	0.026140725
55	0xbd11dff0	-0.035613954
56	0xbde5398e	-0.11192618
57	0x3ce3bed6	0.027800959
58	0xbbc87345	-0.006117257
59	0xbbf30526	-0.007416385
60	0x3c250b2c	0.010073464
61	0xbbdd5b27	-0.006755251
62	0xbdb598a9	-0.08867008
63	0xbd72ea24	-0.059305325
64	0x3d1e4558	0.03864035
65	0x3d0a6205	0.033784885
66	0xbdbddbea	-0.09270461
67	0xbcc3f59e	-0.02392083
68	0xbaac8e65	-0.0013164995
69	0xbb94c6ae	-0.004540286
70	0xbcd8f452	-0.026483689
71	0x3d70fb68	0.05883351
72	0x3cf543ae	0.029939499
73	0xbd6f8416	-0.058475576
74	0xbaa3c743	-0.0012495298
75	0x3d0a0457	0.033695545
76	0x3d6b1082	0.05738879
77	0x3c81438a	0.015779275
78	0x3d1df479	0.038563225
79	0x3cdb1edf	0.026748119
80	0xbd8f1d63	-0.06988027
81	0x3de268e0	0.110551596
82	0xbb153dcd	-0.0022772432
83	0x3b6f5091	0.0036516527
84	0xbbc33dc5	-0.0059582912
85	0x3db306c0	0.08741522
86	0x3ce45480	0.027872324
87	0x3af6efba	0.0018839755
88	0xbc7c6e9a	-0.015407229
89	0xbd33940a	-0.043842353
90	0xbd5e323a	-0.05424712
91	0xbc99a237	-0.018754108
92	0x3d9ff050	0.07809508
93	0xbc276eb5	-0.010219266
94	0xbdc25916	-0.09489648
95	0xbe9cef8b	-0.30651507
96	0xbe31acd0	-0.17351079
97	0xbd6a3a57	-0.057184543
98	0x3d8f4061	0.06994701
99	0x3bc827d8	0.0061082654
100	0x3d14e049	0.036346707
101	0xbc997fc9	-0.01873769
102	0xbd2836ee	-0.04106801
103	0x3c8f7109	0.017509954
104	0x3d155ad6	0.03646358
105	0x3d840737	0.064466886
106	0x3cf25c9a	0.029585171
107	0xbd3d331c	-0.04619132
108	0xbc964327	-0.018342568
109	0xbca53781	-0.020168068
110	0x3c98f8b0	0.018673271
111	0x3b3459a0	0.002751924
112	0x3ca8bfa7	0.0205992
113	0x3b1bcf88	0.0023774821
114	0x3c6c00e0	0.0144045055
115	0x3ce0101f	0.027351437
116	0x3cadf8c2	0.021236781
117	0x3e15781d	0.14596601
118	0x3d6aec83	0.05735446
119	0x3bb9b512	0.005667337
120	0x3da7c000	0.08190918
121	0x3d85a899	0.06526298
122	0xbd85b1b0	-0.06528032
123	0x3e0168db	0.12637655
124	0x3e42691e	0.18985412
125	0x3d0525ed	0.032506872
126	0x3d036cdf	0.03208625
127	0x3c915c08	0.01774408
128	0x3dffbb86	0.12486939
129	0x3c7cc6ab	0.0154282255
130	0x3d2436aa	0.040091194
131	0x3de16f81	0.11007596
132	0x3d97c243	0.07410099
133	0x3d322ce8	0.043499857
134	0xbd45f5b7	-0.048330035
135	0x3ab3cb18	0.0013717143
136	0xbe06f5a3	-0.1317964
137	0xbe116e0e	-0.14202139
138	0x3c888a0f	0.016667394
139	0x3d995f6f	0.07488906
140	0x3dba9592	0.091105595
141	0xbda781fd	-0.0817909
142	0xbd4319f9	-0.04763219
143	0xbe3c7edd	-0.1840777
144	0xbe464e6e	-0.19365856
145	0x3d68d71b	0.056845766
146	0x3dbb42c7	0.09143596
147	0x3cf19d13	0.029493844
148	0xbd2668c4	-0.040627256
149	0xbd6c7001	-0.057724003
150	0xbd9bdd40	-0.076105595
151	0xbdb88eb8	-0.090115964
152	0xbd4b25dc	-0.049596652
153	0x3cc6caf0	0.02426669
154	0xbdd32758	-0.103102386
155	0xbd01f5ed	-0.031728674
156	0x3ce8cf1a	0.028419066
157	0xbcd84cbb	-0.026403775
158	0xbc9239e8	-0.017849877
159	0xbd9548ca	-0.07289274
160	0xbd451233	-0.04811306
161	0xbe02d544	-0.12776667
162	0x3d61ef75	0.055160005
163	0x3d5dc9d2	0.05414755
164	0x3c1aec9f	0.009455829
165	0xbd17489d	-0.036934484
166	0x3bf5dcc0	0.007503122
167	0xbd1389e1	-0.036020163
168	0xbd96b469	-0.07358629
169	0x3d34d56b	0.044148844
170	0x3db8f52d	0.090311386
171	0xbd5eec89	-0.054424796
172	0xbd100818	-0.03516397
173	0x3dd0665a	0.10175772
174	0x3d22c454	0.039738014
175	0xbc9e15a1	-0.019297423
176	0x3d1a5103	0.037674915
177	0xbc9d6c97	-0.019216819
178	0xba37e9b5	-0.0007015721
179	0x3dba4afd	0.09096334
180	0xbaafd391	-0.0013414492
181	0x3ca6a091	0.020340236
182	0xbd259e97	-0.040434446
183	0x3b8730a7	0.004125673
184	0x3d6f4c91	0.05842263
185	0x3ad89ca7	0.0016526178
186	0xbd2402a2	-0.040041573
187	0xbcc1bfd7	-0.023651047
188	0x3d0bda15	0.034143526
189	0x3d87eda2	0.06637122
190	0xbd67545b	-0.056476932
191	0xbdc5d14d	-0.096590616
192	0xbde1434c	-0.10999164
193	0xbdf5e674	-0.12006846
194	0xbe1f84e3	-0.15578036
195	0x3d9d9f90	0.0769645
196	0x3d3696e8	0.04457751
197	0x3bd37494	0.006453106
198	0x3d16c1df	0.036805984
199	0x390972a6	0.00013108048
200	0xbd60d5fa	-0.054891564
201	0xbd6feb10	-0.058573782
202	0xbb8c7846	-0.0042867986
203	0xbc4d4739	-0.012529188
204	0xbc4b8643	-0.012422147
205	0xbc670bb0	-0.014101908
206	0xbb4e2b8f	-0.0031459068
207	0xbc200cd6	-0.009768685
208	0xbb2f913e	-0.0026789452
209	0x3caac1bf	0.020844338
210	0xbcf924f2	-0.030413125
211	0xbd7d4fd0	-0.061843693
212	0xbd2af9e4	-0.04174222
213	0xbe37358e	-0.17891523
214	0xbe39f46a	-0.18159643
215	0xbdef18ab	-0.11674627
216	0xbc8e4137	-0.017365081
217	0xbd665279	-0.056230996
218	0xbe1e635d	-0.15467592
219	0xbdf3336b	-0.118750416
220	0x3b6758d6	0.0035300753
221	0xbdd5f2a8	-0.10446674
222	0xbd03120e	-0.03199964
223	0xbd8a9861	-0.06767345
224	0x3c2160b3	0.009849715
225	0xbe40e5e7	-0.18837701
226	0xbd863e9d	-0.06554911
227	0x3bdfbd33	0.006827974
228	0xbe1b233c	-0.1515016
229	0x3d24935c	0.040179595
230	0x3c58e819	0.01323893
231	0xbd452bb4	-0.04813738
232	0xbdb4e90d	-0.088335134
233	0x3d2ef915	0.042718012
234	0x3e246404	0.16053778
235	0x3d45237a	0.048129536
236	0xbad4f443	-0.0016247112
237	0x3cd76713	0.026294267
238	0x3e0b8f7e	0.13628957
239	0x3d677ac4	0.056513563
240	0xbde41dff	-0.11138534
241	0xbcd8d1d1	-0.026467236
242	0x3ca53e1c	0.020171218
243	0xbbfff7a6	-0.0078115044
244	0xbb017a56	-0.0019756756
245	0x3d37fc59	0.04491839
246	0x3d59bf6d	0.053161073
247	0xbce887e0	-0.028385103
248	0x3d5b91cc	0.05360584
249	0xbd09cc54	-0.033642128
250	0x3af9bc14	0.0019053244
251	0x3cc2116f	0.023689954
252	0x3d8c59b5	0.06853048
253	0xbd852512	-0.06501211
254	0x3a0871f5	0.0005204969
255	0xbd204b10	-0.039134085

fc1.bias f4 [10]
0	0x3d5ada82	0.05343104
1	0x3d4029c4	0.04691483
2	0xbb9b2af1	-0.0047353436
3	0xbdf1cdd9	-0.118068404
4	0x3cbe3e6c	0.023223124
5	0xbcca640f	-0.024705915
6	0xbc96d6e0	-0.018413007
7	0xbb2bde4a	-0.0026225024
8	0x3d27a100	0.040925026
9	0xbc33c5a6	-0.010972416
